assets/model_1.tflite (tflite, 2668 bytes, 5 tensors)

arith.constant f4 [1, 8]
00000000: e85d 6abe 0023 8d3d 0061 ecbc c691 3f3f
00000010: 7825 a0be 568c 433f 5686 903d 0206 fdbd
-0.22887385 0.06891441 -0.028854847 0.7483181 -0.31278586 0.7638601 0.070568725 -0.123546615

arith.constant1 f4 [8, 16]
00000000: e00f 29be 58c2 1d3e 40b0 c9be a0f7 953d
00000010: 781c 283e 90f7 173e b04c dcbd 90d7 5b3e
00000020: 14bf f33e d437 ffbe 9475 c2be 80f8 83bd
00000030: 80db ebbd f479 d3be d0ad 7d3e a89c 78be
00000040: 8009 ba3d f8b5 b3be 2431 873e b001 dbbd
00000050: 747a fabe 748b ecbe 3033 7dbe 60ae 9ebe
00000060: 20d3 9abe b86a 683e d089 f2be d8fd 49be
00000070: 805f cf3c f8ca 0dbe 60a4 ae3d 0407 933e
00000080: acc8 af3e 0975 dd3e 4070 61be 5674 dcbe
00000090: 609c 253d d44a f4be 987f 27be 8e5c b9be
000000a0: c060 bf3e 0ca5 eb3e 00c8 7cbe 98d3 28be
000000b0: 7081 c2bd 0054 7abd c2f2 cc3e 80f4 f0be
000000c0: 6f60 ae3e 13f9 98bd 606e 9fbe 3aa9 593e
000000d0: 08e7 26be bc77 b53e c07b c23c 3f20 be3d
000000e0: f846 353e 9cb8 c03e e0ee a63e 809f d43e
000000f0: e916 433e 7c6b 9dbe 677c d6be e80c 6c3e
00000100: 80f4 8d3e 38de 9ebe 9073 db3d dc55 e73e
00000110: 8043 f0bc 6045 7abe 80b0 dcbd 2013 7abd
00000120: 8003 be3c c0f0 5a3d d0a7 91bd 2c0e 863e
00000130: 605e 38bd d031 2f3e 8874 de3e 64fa f1be
00000140: a48a ddbe 8837 e0be c8c1 a8be 607c 01bd
00000150: 8c89 fe3e f0bf 473e bc7d febe 4060 0d3e
00000160: f05e 8a3d 402b 5fbe 6803 5abe c000 dabc
00000170: b003 0ebe 0009 d33e 6449 bd3e a43c a1be
00000180: 974c f5bc 106e cb3e a11e d53e fe76 fb3e
00000190: c41a 9d3e 80b2 0ebe 981a 79be ed72 c6be
000001a0: d0b6 a63d 806b b13c d0e8 ecbd 422d 4e3e
000001b0: 86b7 653e a05c c63d 4233 1e3e 24cb c3be
000001c0: c8d4 20be a3ab 753e dda2 cb3e ceaf 04be
000001d0: 8832 fe3e 2896 5a3e c044 cfbc 77f7 b4be
000001e0: c861 6b3e a0d2 91bd a46c a6be af20 ddbb
000001f0: dc67 98be 8455 89be d0b4 01be 80fc 743d
-0.16509962 0.15406168 -0.3939228 0.07322621 0.1641711 0.14840531 -0.107568145 0.2146895
0.4760672 -0.4984728 -0.3798033 -0.06443882 -0.11516476 -0.4130398 0.24773335 -0.2427851
0.09083843 -0.3509977 0.2640468 -0.10693681 -0.4892155 -0.46200144 -0.24726558 -0.30992413
-0.302392 0.2269696 -0.47370768 -0.1972574 0.025314093 -0.13846958 0.08527446 0.2871629
0.34332788 0.43253353 -0.22015476 -0.43057507 0.040432334 -0.4771334 -0.16357267 -0.36203426
0.37378502 0.46024358 -0.24685669 -0.16486967 -0.094973445 -0.061115265 0.4002896 -0.4706154
0.34057948 -0.07469382 -0.31138897 0.21255961 -0.16299069 0.35442913 0.02374065 0.09283494
0.17702854 0.37640846 0.32604122 0.4152794 0.19051708 -0.30746067 -0.41891786 0.23051798
0.277256 -0.31028914 0.10715401 0.45182693 -0.029329062 -0.24440527 -0.10775852 -0.061053395
0.023195028 0.053452253 -0.07112086 0.26182687 -0.045011878 0.17108846 0.4344828 -0.47261345
-0.43269837 -0.43792367 -0.32960343 -0.031612754 0.49714315 0.19506812 -0.49705303 0.13806248
0.06756389 -0.21793842 -0.21290362 -0.026611686 -0.13868594 0.41217804 0.36970055 -0.31491578
-0.029943747 0.3973241 0.4162493 0.4911422 0.30684483 -0.1393528 -0.24326551 -0.38759556
0.081403375 0.021657705 -0.11567843 0.20134452 0.2243329 0.096856356 0.15449241 -0.38240921
-0.1570617 0.23991255 0.39772692 -0.12957689 0.49647927 0.21346343 -0.025301337 -0.3534505
0.2298652 -0.07120252 -0.3250476 -0.006748281 -0.29766738 -0.26823056 -0.1266663 0.059811115

arith.constant3 f4 [8]
00000000: 0000 0000 0000 0000 6761 e5bc 735d 893c
00000010: 0000 0000 0000 0000 2339 0d3d 23ae 0abc
0.0 0.0 -0.028000547 0.016768193 0.0 0.0 0.034478318 -0.008464369

sequential_6_1/dense_18_1/BiasAdd/ReadVariableOp f4 [16]
00000000: 5144 90ba daf2 cdbc 27a6 00bc 4017 103d
00000010: 0000 0000 0000 0000 0000 0000 56d7 823c
00000020: 0000 0000 0000 0000 0000 0000 9824 0d3d
00000030: ac1e f63c 0000 0000 5ca0 07bd 0000 0000
-0.0011006688 -0.025140215 -0.007852114 0.035178423 0.0 0.0 0.0 0.01597182
0.0 0.0 0.0 0.034458727 0.030043922 0.0 -0.033111915 0.0

sequential_6_1/dense_18_1/MatMul f4 [16, 2]
00000000: a822 4f3e f768 cfbd 8cea e53e 5e29 0b3f
00000010: 2e31 083f f2ab adbe 049e 833e 376f 9dbe
00000020: 9cfe c8be 90b9 183d 6263 d1be 508f 32be
00000030: 302d 1bbd a664 d3be 6511 743e b0d5 f33e
00000040: d258 30be 4077 1e3d 66cf 0ebf a864 a8bd
00000050: 6002 f9bc 10fd b1be 11f2 65bd ce3c c83e
00000060: dffd 003f 626f 5a3e 0eb2 49be c097 e33d
00000070: f726 313e d3cc e7be 2800 f4be c08e edbd
0.20228064 -0.10127442 0.44905508 0.54359996 0.5320004 -0.33920246 0.25706494 -0.30748913
-0.39256752 0.03728634 -0.40896136 -0.17437482 -0.03788489 -0.41287726 0.2383476 0.47623968
-0.17221382 0.038687944 -0.55785215 -0.08222324 -0.03039664 -0.34763384 -0.056139056 0.3910889
0.50387377 0.21331552 -0.19696829 0.111129284 0.1730002 -0.45273456 -0.4765637 -0.11599493
