assets/model.tflite (tflite, 2668 bytes, 5 tensors)

arith.constant f4 [1, 8]
00000000: 8ae7 13bf 7fe3 143f 36e7 79be fc2f c3be
00000010: 3f41 acbe 9ef2 523f a084 15bf 0066 803d
-0.57775176 0.5815963 -0.24404606 -0.38122547 -0.3364353 0.82401454 -0.58405495 0.06269455

arith.constant1 f4 [8, 16]
00000000: 7361 37be 2ced b33e aff4 cf3e b839 f93e
00000010: d530 1e3e c66e aebe 7447 903e 47ea c93e
00000020: 5828 06be d628 89be 40e9 f6be 4413 8cbe
00000030: b0ac e8be 9abe a23e 1c5b cdbe 0cd5 d9be
00000040: 552b c63e dc70 3fbe eef1 85be f00b 34be
00000050: a288 f23e 57ab b03e 17fc 89be 5c2c 6e3e
00000060: 24ea f9be c3c2 d63e 6bd7 ba3e 0082 a33c
00000070: 85fd 613e 0b1b 183e ac0d 8dbe 5eff aabe
00000080: a51d 923e dccd b4bd 527d 0cbe 44fe b8be
00000090: 4d42 06bf 1ff9 b43e 315c ed3e 36c7 873e
000000a0: 006c 6b3d a68e 3f3d 6b5e cf3d 58ff e33e
000000b0: 73ad 9d3e dd59 5d3e 4103 f3be 1e9c dabe
000000c0: c09c eb3d ecf8 f63e a4f8 9f3e 0007 853c
000000d0: d0c9 3dbe 40a9 a8bd dced f53e b8e3 583e
000000e0: 10d9 e03e 0035 c9be a014 5ebe 40bc 19bd
000000f0: e01e 123d 1018 75be b064 923d c838 cd3e
00000100: 83e0 203e 7e87 3dbd 2470 dc3e 38f1 1a3e
00000110: b076 ae3e 3187 b8be 1b56 66be 5c6d acbd
00000120: a847 743e 1a47 09bf 7be6 34bc 9c47 b53e
00000130: 6803 df3e cc7b 36bd b240 06be 8653 7f3e
00000140: 4113 033f a9fd 0b3d 9736 083f c02c dd3d
00000150: cb5f ce3e 055c e43b 539d cbbe 1ddc 093f
00000160: 2090 033e cffa cd3e da4f f1bc e88a bb3e
00000170: e516 6bbe 18b2 5bbe 38f7 5cbe 015b 983d
00000180: 2633 113e 9298 c73d dde5 83be 486a d93e
00000190: 57d6 993e 6dcc d4bd ed89 d5be 3b84 943a
000001a0: 5074 67be 1d6e 1cbd 231a 5a3e 4c1a b73e
000001b0: dd81 6d3e 7fe3 a83d 5b70 4ebe 81b7 ebbd
000001c0: e841 02be 48c7 a63e b0de 153e 088e 3b3e
000001d0: 9887 e3be 4862 0ebe 18da 5a3e 58b6 69be
000001e0: e0b0 ccbe fcff 8ebe 800c 69be 2c61 9abe
000001f0: 78c1 95be 00d2 583b 0077 a93b 281d 02be
-0.17908268 0.35141885 0.40616366 0.48676848 0.15448315 -0.34068888 0.28179514 0.39436552
-0.13101327 -0.26788968 -0.4822483 -0.27358449 -0.4544425 0.31786042 -0.40108573 -0.42545354
0.38704935 -0.18695396 -0.2616114 -0.17582679 0.47369868 0.34505722 -0.26950142 0.2325911
-0.48811448 0.41945466 0.36492476 0.01995945 0.22069366 0.14854066 -0.27549493 -0.33397955
0.28538242 -0.08828327 -0.13719681 -0.3613149 -0.52444917 0.35346314 0.463594 0.26519173
0.057476044 0.0467669 0.10125431 0.4453075 0.30796394 0.21616311 -0.4746342 -0.42697233
0.11504507 0.48236787 0.31244385 0.01623869 -0.18534017 -0.08235407 0.48033035 0.21180618
0.43915606 -0.39298248 -0.21687555 -0.037533045 0.035673976 -0.2393496 0.07148111 0.40082383
0.15710644 -0.046271794 0.43054307 0.1513108 0.34074926 -0.36040643 -0.22493784 -0.08419296
0.2385546 -0.5362412 -0.011041279 0.35406196 0.43557286 -0.044551656 -0.13110617 0.24934205
0.51201254 0.034177456 0.532083 0.10799551 0.4030746 0.0069689774 -0.39768466 0.5385149
0.12847948 0.40230414 -0.029457022 0.36629415 -0.22957952 -0.21454656 -0.21578681 0.074392326
0.14179668 0.09745897 -0.2576131 0.424639 0.3004634 -0.103905536 -0.41706792 0.0011330912
-0.22602963 -0.03819095 0.21299033 0.3576225 0.2319407 0.082465164 -0.20160048 -0.1150961
-0.12720454 0.32573915 0.1463573 0.183159 -0.44439387 -0.13904679 0.21372259 -0.22823465
-0.39978695 -0.27929676 -0.22758675 -0.3015226 -0.29249167 0.0033084154 0.0051716566 -0.12706435

arith.constant3 f4 [8]
00000000: e74e a8bc e7ff d13d 18ca bfbd 0000 0000
00000010: 2776 44bd 9803 d03d 29a9 c5bd 0000 0000
-0.020545436 0.102538876 -0.09364718 0.0 -0.04796424 0.101569355 -0.09651405 0.0

sequential_7_1/dense_21_1/BiasAdd/ReadVariableOp f4 [16]
00000000: 794d 043e 0c0b d0bc 6112 043e 0000 0000
00000010: 73f3 003e bc97 9b3d 9caa 05bd fe90 e83d
00000020: 0000 0000 3ce3 cc3d 1348 55bd 0000 0000
00000030: 7885 a2bd e0cf b3bd f525 62bd b4c3 19bd
0.12920178 -0.025395893 0.12897636 0.0 0.12592869 0.075973004 -0.03263341 0.1135578
0.0 0.10004279 -0.05207069 0.0 -0.079356134 -0.087798834 -0.05521198 -0.037540153

sequential_7_1/dense_21_1/MatMul f4 [16, 2]
00000000: 892f 1a3f edab c9be d3c7 28bd b343 063e
00000010: e6f8 0c3e 530c be3e 0e2c 93be c469 16be
00000020: d06f ad3e 8a87 a7bc 7de1 123e 786c 7d3d
00000030: 7eb2 f8bb 7b31 0aba 082c 0c3f 608c 17be
00000040: 2425 2abe 3408 2e3e 4525 093f 1518 73bd
00000050: eb1a 943e 1a02 f8be 4b53 f4be 4e1b 51be
00000060: ab92 953d d63e 883e c017 aa3e ff4b 323e
00000070: 60f9 53bb dc6e 8abe dc93 b73d ea45 453e
0.6022878 -0.3938898 -0.041206192 0.13111763 0.13766822 0.37118778 -0.2874455 -0.14688784
0.3387437 -0.020450372 0.1434383 0.061871022 -0.0075896373 -0.00052716554 0.54754686 -0.14799643
-0.1661573 0.16995317 0.53572494 -0.05934914 0.28926787 -0.48439103 -0.47719797 -0.20420572
0.07303365 0.2661044 0.33221245 0.17411803 -0.0032344684 -0.27037704 0.08963749 0.19264951
